snotel_nn_model.pth (torch, 5200 bytes, 3 tensors)

fc1.weight f4 [128, 4]
000000 2f ed 4a 3e 4d bd a8 bd f7 1c 07 3c ea a7 93 3d
       0.19817041 -0.08239231 0.008246652 0.072097614
000010 8e 15 9b be e2 78 f9 be a4 51 d6 3d 7e 40 c6 3b
       -0.30289882 -0.4872504 0.104647905 0.0060501685
000020 06 09 b2 3e d4 0c bc be d4 76 74 be 7f 5f 89 be
       0.3477251 -0.36728537 -0.23873454 -0.2683067
000030 af 7b 93 3e e1 c5 9f be 1b cb 34 bd 0a f4 c7 3e
       0.288053 -0.31205657 -0.04413901 0.39053375
000040 01 ee 8f be 30 95 86 3d 9a 3f d0 3d e8 fe 95 3e
       -0.2811127 0.06571424 0.10168381 0.2929604
000050 13 ef f8 be f9 cf e3 be 8d 8c 8d 3e 81 f2 49 3e
       -0.486199 -0.44494608 0.27646294 0.19721414
000060 af 90 3f bd 0b 42 22 be eb ed 8c 3d 5a 9f d3 be
       -0.04676884 -0.15845506 0.06881317 -0.41332513
000070 b8 36 c7 bd c3 cb a5 bd ad 89 e8 bd 7d 78 9d 3e
       -0.09727234 -0.08095505 -0.113543846 0.30755988
000080 b2 29 0d 3e 06 a6 a0 3e 44 4d a5 be 39 69 e4 bd
       0.13785437 0.31376666 -0.32285511 -0.11152882
000090 71 00 c5 3d 31 77 40 be cd 90 8c 3e f1 22 9b 3d
       0.09619225 -0.18795468 0.27454224 0.07575024
0000a0 4f ce 91 3e 27 34 f4 be cc 13 58 be 2d 2d 3b 3a
       0.28477713 -0.4769604 -0.21101302 0.00071402156
0000b0 da 45 e1 bd ad fe e9 3e d4 25 6f be c0 82 07 bc
       -0.10999651 0.45702115 -0.23354274 -0.008270919
0000c0 05 98 4d be ec 6c 20 3b e9 e1 97 be f7 94 44 3e
       -0.20077522 0.0024478985 -0.29664543 0.1919745
0000d0 54 a3 6b 3e 99 d6 c9 be 64 ed 59 be af aa cc 3e
       0.23011523 -0.39421538 -0.21281964 0.3997397
0000e0 31 e1 5c 3e 89 e4 af be 46 bb 90 be 42 49 e0 3e
       0.21570279 -0.34354046 -0.28267878 0.4380589
0000f0 51 8e c2 bd fa 00 a5 be d0 79 fd 3e 37 94 9d 3a
       -0.09499801 -0.32227308 0.49506998 0.0012022321
000100 c5 6d 8a 3e 25 99 f3 3e 0b 65 c3 be c4 d5 05 be
       0.27036873 0.47577778 -0.38163027 -0.13069826
000110 5f a0 94 3e cd 67 3f 3e ef 08 eb bd 20 44 e3 bd
       0.29028603 0.1869194 -0.11476313 -0.11096978
000120 d0 85 72 be 08 ea f8 bd 89 ec 0d 3e 9d 70 38 3e
       -0.23683858 -0.12154013 0.13859762 0.18011709
000130 a1 ba 17 3e 36 a7 e0 3e d4 8c d9 3e 13 eb fd be
       0.14817287 0.43877572 0.42490256 -0.4959341
000140 36 9f ca 3e bb aa 12 be 24 93 6c 3e 95 8f 51 bc
       0.39574593 -0.14322941 0.23103005 -0.01279058
000150 44 39 21 3e 22 d9 e3 be 89 98 bf be 6b d1 f6 3e
       0.15744501 -0.44501597 -0.37421063 0.48206648
000160 12 cb 1c 3d 3f 68 a7 3e ad 67 56 bd a2 e1 a9 be
       0.0382796 0.3269672 -0.052344967 -0.33179957
000170 9f 87 ed 3e 65 20 bf be e3 fe de 3e 8b 24 e5 3e
       0.46392533 -0.37329403 0.43553838 0.44754443
000180 1f 16 8f be 24 8e 59 3e bd be 2c be 18 c0 c6 3d
       -0.27946565 0.21245629 -0.16869636 0.09704608
000190 7f 7d b9 bd 55 5f d4 3e 84 e8 7b be a7 7b 83 be
       -0.090571396 0.41478983 -0.24600416 -0.25680277
0001a0 7e 6c 86 bd 5a 10 b6 bd ea 47 46 be f3 05 c3 bd
       -0.06563662 -0.088898376 -0.1936337 -0.09522619
0001b0 39 77 ad 3d da 7b 22 3c f7 b3 f9 3e 35 d9 4a be
       0.084700055 0.009917224 0.48770115 -0.1980942
0001c0 2f 7a da 3e 8c c9 a0 3d 33 64 a3 3e 9e 11 a1 3e
       0.42671344 0.07850942 0.31912383 0.31458753
0001d0 ab ab 1f be 13 67 d2 3d 61 f7 37 3d 18 18 23 3e
       -0.1559283 0.10273566 0.044913653 0.1592716
0001e0 52 e3 3f 3e 48 7c a5 3c 27 95 ef 3e 9d d9 ff be
       0.1873906 0.020200863 0.46793482 -0.49970713
0001f0 33 ea a2 3e 71 d0 83 3e 35 83 9d bd 94 7b e3 3e
       0.31819305 0.25744966 -0.076910414 0.4443022
000200 0a 5e 5a be 5a 60 fc be e4 a6 0a 3e 6f c8 d3 3e
       -0.21324936 -0.4929226 0.13540226 0.41363856
000210 ed ae f2 3d 4d ee c7 be 31 cf a6 3e de c2 f2 3e
       0.11849771 -0.39048997 0.3257995 0.47414297
000220 73 fb be bc 8d af 0b 3e e5 f6 83 3e 51 e4 a8 3e
       -0.02331326 0.13641186 0.25774303 0.32986692
000230 5a bf d1 be 08 43 ab 3e 4d 6a 27 3e 45 86 00 be
       -0.40966302 0.33449578 0.16349144 -0.1255122
000240 cd e5 db be 7a ba 81 bd 88 e5 3b 3d 12 d0 86 3d
       -0.42948762 -0.06334396 0.045873195 0.06582655
000250 20 9a b8 3d 71 d7 cf be 6d a0 f1 bd 4b 0b dd 3d
       0.09013772 -0.40594056 -0.11798177 0.107931696
000260 6e 5d c3 3e 5e 71 ac 3e 56 63 34 be b6 1e 3d 3e
       0.3815722 0.33680242 -0.17616019 0.18468747
000270 77 32 86 bd f9 99 60 be 5d 6f 71 3e dd cb 71 bd
       -0.06552594 -0.21933736 0.23577638 -0.05903231
000280 a8 dc 3d 3d b6 50 64 3d 6d c8 28 3e 23 ad a6 be
       0.046353012 0.055741034 0.16482706 -0.32553968
000290 03 a8 9b 3e d0 3a 1a bd 28 2d 51 be 3a 28 40 be
       0.3040162 -0.037653744 -0.20427382 -0.18765345
0002a0 06 c9 ef be 0c a6 83 3e ce bc b7 be 0b e2 88 be
       -0.46833056 0.2571262 -0.35886234 -0.26734957
0002b0 be 8e e4 be 88 df 5b 3e 2a e1 a2 3e 46 49 4b be
       -0.44640154 0.21471989 0.31812412 -0.1985217
0002c0 3b 6f 95 3e fd 18 0f 3e 55 34 8f 3e e6 4d cd bd
       0.29186425 0.13974376 0.27969614 -0.100246236
0002d0 f7 fb af bd d6 f1 00 3e 0f 42 c4 3e b5 4f ac 3e
       -0.0859298 0.12592253 0.3833165 0.33654562
0002e0 23 7e dc be a6 8b 21 3e 3e f6 ce be ac e9 dc be
       -0.43064985 0.15775928 -0.40422243 -0.43147027
0002f0 e8 33 a8 3e 88 28 01 3f bc 22 d5 bc c1 ec 08 be
       0.328521 0.5045247 -0.02601754 -0.13371564
000300 bf 27 7e 3e 6d cc a7 3e 1e ee 1c 3e 81 36 7e be
       0.2481985 0.32773152 0.1532521 -0.24825479
000310 7a 74 cd be d7 1f 32 be 91 4f 86 bd cf a9 87 be
       -0.40127927 -0.17394958 -0.06558145 -0.2649674
000320 59 0a 9c be 97 d4 f3 3e a2 8a 2d be 20 3f 8c 3c
       -0.30476645 0.4762313 -0.16947415 0.017119944
000330 4e 5b f8 3e 87 e7 ae be 76 03 c8 3e 16 90 61 3e
       0.4850716 -0.34161016 0.3906514 0.2202762
000340 8b 1c f6 be 78 4e bc 3e 5b 0d e6 3c 55 47 9c be
       -0.48068652 0.36778617 0.02808254 -0.30523172
000350 78 8a ac be 3b 82 db 3e 59 39 3e 3e 6d 9d 0a bd
       -0.33699393 0.42872795 0.18576564 -0.03384154
000360 6b 92 ad ba ab 30 68 bd 86 27 ac 3e 03 6e e0 bd
       -0.0013242488 -0.05668704 0.33623904 -0.10958483
000370 93 11 5d be 87 4d 98 3e b3 bd a0 be bf 4e e7 be
       -0.21588735 0.2974665 -0.3139473 -0.45177266
000380 06 05 e8 3e fb cb ce be 0b a6 f3 3e 5a 44 bf bd
       0.45316333 -0.4039 0.47587618 -0.09339209
000390 d1 2b fe 3e 68 82 11 3e 50 c1 18 3e c4 c7 34 be
       0.49642804 0.14209902 0.14917493 -0.1765433
0003a0 ea 87 52 3c 7f d9 fb be 86 08 49 3e cb bd 9c be
       0.012849787 -0.49189374 0.19632158 -0.3061355
0003b0 1c 67 a6 be 0c 06 91 be 48 f3 ea bd 66 22 ea 3e
       -0.3250054 -0.28324926 -0.114721835 0.4572937
0003c0 ff 48 c9 be f0 5b fd 3d e0 ed 8c 3d 9b c9 c4 be
       -0.39313504 0.12371051 0.068813086 -0.38435063
0003d0 46 12 a8 bd 25 2f a5 3e e4 c7 49 be ba d0 b7 3e
       -0.082066104 0.3226253 -0.19705158 0.35901433
0003e0 e8 27 9b bd f2 ad 31 be fa 98 ca be 9a 7d f3 3d
       -0.07575971 -0.17351511 -0.39569837 0.11889191
0003f0 78 05 a5 3e 41 e6 b9 be 6b bf 3b be db ba 9e 3d
       0.32230735 -0.36308482 -0.18334739 0.077504836

fc1.bias f4 [128]
000000 c9 65 ee 3d 77 ae a7 be d4 64 3d be ac d5 ce 3e
       0.11640508 -0.32750294 -0.18495494 0.40397394
000010 02 1f 80 3e 43 3f c5 3e 30 b2 4f 3e b4 d8 3a 3e
       0.25023657 0.38524827 0.20282817 0.18246728
000020 60 ee c4 3e 35 13 81 3e 8a 76 c7 bd cc ce 9c bd
       0.38463116 0.25209966 -0.097394064 -0.07656631
000030 e3 46 b5 3e 49 04 24 bd b8 b6 37 bd 34 91 aa 3e
       0.35405645 -0.04004315 -0.04485199 0.33313906
000040 f2 29 a0 3e ac dd f3 be de f1 04 3e 95 86 01 3e
       0.31282002 -0.4763006 0.1298289 0.12648995
000050 59 98 5e 3e 52 d9 f4 3e 2d 0f 72 3e b8 3d 87 bc
       0.21737804 0.47822052 0.23638602 -0.016508922
000060 ba d2 f4 be b6 06 90 be 79 d4 9e 3d 93 fb f3 3e
       -0.47817022 -0.2813012 0.0775537 0.47652873
000070 0e 28 a0 3e ed 88 70 be 6d f3 41 3e 28 8c 6a be
       0.3128056 -0.23489733 0.18940516 -0.22905028
000080 32 e0 64 be ef 75 7a bc d5 ee 53 3d ef 11 9f be
       -0.22351149 -0.015286907 0.05174144 -0.3106837
000090 9d 5b 68 3e 68 30 2f be b5 fc 01 3e d1 8e af 3e
       0.22691198 -0.1710831 0.12694056 0.34288648
0000a0 37 cc 51 be a8 4c 9e be 24 a3 e4 bc d8 4d e3 bd
       -0.20488058 -0.3091786 -0.027909823 -0.11098832
0000b0 f1 e2 cc be 71 f2 bd bd 64 1f 84 3e 48 3a c8 be
       -0.40016893 -0.09274758 0.258052 -0.39106965
0000c0 7d d5 d5 be 06 c8 f1 be bb 98 60 3e 71 4b 90 3e
       -0.4176444 -0.47222918 0.21933262 0.28182557
0000d0 84 f7 a4 3d 25 f5 c0 3e 4c 10 ed 3e 59 76 73 be
       0.08055022 0.3768703 0.46301496 -0.23775615
0000e0 a3 75 db 3e ef 40 ec be 1d eb 52 be 20 6c d2 3e
       0.42863187 -0.4614329 -0.20597501 0.41098118
0000f0 06 08 ee bd f6 8d a4 be 53 21 87 3e 42 8a 77 bd
       -0.11622624 -0.32139558 0.26392612 -0.060434587
000100 07 4b d9 3d ef f8 a9 3e f9 d7 ac be a6 78 7a 3c
       0.106100135 0.33197734 -0.33758524 0.015287554
000110 08 6c c4 be b4 e7 f7 be e2 9c 8a 3e e2 a7 ca be
       -0.3836367 -0.48418963 0.27072817 -0.3958121
000120 07 8f 9e 3e 40 db f4 3e 63 4f 86 be 68 ff 7f bd
       0.30968496 0.47823524 -0.26232442 -0.062499434
000130 71 b7 b0 be 53 75 ee bd a0 20 79 3d 43 a8 a5 3d
       -0.34514955 -0.116434716 0.06082213 0.08088734
000140 ee 07 d7 bd 37 4d 98 be f3 22 b7 be 54 05 81 be
       -0.10499559 -0.2974641 -0.35768852 -0.25199378
000150 17 03 8f 3d 33 e3 34 be c7 dd 22 be a7 1d af be
       0.06983011 -0.17664795 -0.15904914 -0.3420231
000160 20 bb b7 be 77 4f df be df 02 c7 3e ea ce d4 be
       -0.35884953 -0.43615314 0.38869378 -0.41564113
000170 5b 4c ec be 0b 66 f1 be 11 5e ce 3b a9 fb 68 be
       -0.46152005 -0.47148165 0.0062978347 -0.2275225
000180 cf 6f ec 3e 1a d7 d2 3e 7d 57 83 3c 3f 84 95 3e
       0.46179053 0.41179734 0.016032929 0.29202458
000190 68 ea 54 be 5b a5 9c 3b d8 58 b5 be 48 e7 c3 3d
       -0.20792544 0.004780454 -0.35419345 0.09565598
0001a0 3e 54 f3 3e ab 9a 49 be 24 b0 dc 3e 08 0a fb 3e
       0.4752521 -0.19687907 0.43103135 0.4903109
0001b0 de 51 6e 3e 11 d3 82 be 30 e5 a0 3e 07 be b6 3c
       0.23273417 -0.25551656 0.31424856 0.022307409
0001c0 22 ef 87 3e d0 c4 af be 97 93 fa 3e 1a 45 c3 3e
       0.2654963 -0.34329844 0.48940727 0.38138658
0001d0 c1 59 2c bd 17 8f a7 be e0 dc b9 3e 2d de ca be
       -0.042077783 -0.32726356 0.36301327 -0.39622632
0001e0 4b fe b3 be fb 0c fb be b6 b2 c5 3e 02 c3 0f 3e
       -0.35154948 -0.4903334 0.38612908 0.14039233
0001f0 22 72 a6 3e 22 57 2e be 61 35 d0 be 39 17 59 be
       0.3250895 -0.17025426 -0.40665725 -0.21200265

fc2.weight f4 [1, 128]
000000 11 e3 75 bd 58 74 98 bb 08 63 93 bd 7f 1f 75 bd
       -0.060031 -0.004652541 -0.07196623 -0.05984449
000010 72 8d 01 3d 98 20 a2 bd 92 64 96 3d c8 33 81 bd
       0.031629033 -0.07916373 0.07343401 -0.063087046
000020 79 3b 1c 3d bf 2d bc 3d 65 2f 7a bd 96 9c a2 bd
       0.038142655 0.09188413 -0.061080355 -0.07940023
000030 50 a9 f8 3c 20 5c 12 bd 47 90 92 3d f8 ce da bc
       0.030354172 -0.03573239 0.07156425 -0.026710019
000040 b0 b1 48 3d 63 a0 75 bd b3 96 04 3c 3d 60 86 bd
       0.04899758 -0.05996741 0.00809257 -0.06561325
000050 4d 87 73 3c 5f 16 47 bd ff bd ba 3d d5 27 1c 3d
       0.014863801 -0.04860532 0.0911827 0.038123924
000060 a6 2d 83 3b a0 cc 97 3d d1 b2 19 bc 54 4d 0f 3a
       0.0040032445 0.07412076 -0.009381012 0.000546654
000070 bc 7a aa 3d df f6 51 bd b7 7e 7a 3d aa c4 50 bd
       0.08324191 -0.051260825 0.061156 -0.050968803
000080 93 a3 c4 3c e9 77 17 bd 6b 28 85 bd 5f 1f 11 bc
       0.02400378 -0.03697959 -0.0650185 -0.008857577
000090 e3 b8 8c 3c af 8b 39 3d 7c dc 34 3d 9c 15 85 3c
       0.017178005 0.04529923 0.044155583 0.016245656
0000a0 49 8f 2d bd e5 27 37 3d 60 78 30 3d 60 40 53 3d
       -0.042372975 0.04471578 0.04308355 0.051575065
0000b0 86 50 8a bd 27 33 9d 3c e9 aa 77 bd 1d 23 18 bd
       -0.0675364 0.01918943 -0.060465727 -0.03714286
0000c0 d9 d7 02 3c f5 48 65 3d cb 98 2c bd 84 f0 8b bb
       0.007986032 0.05597778 -0.042137902 -0.004270615
0000d0 3f 89 76 3d eb ed 86 bd 87 1a 67 3d 7a 85 68 3c
       0.06018948 -0.06588348 0.056421783 0.01419198
0000e0 0d 81 4b 3c 82 22 fa bc 40 73 aa 3d ee f2 93 3d
       0.012420905 -0.030534033 0.083227634 0.072240695
0000f0 4d e8 f8 bc 42 9b fe bc 2c fc 83 bd d1 c6 35 bd
       -0.030384207 -0.031079892 -0.06444582 -0.04437906
000100 35 38 7d 3d 8f 29 2f bd 40 08 2e bd 6f d1 6f bd
       0.06182118 -0.042764243 -0.042488337 -0.05854934
000110 99 5c 2d bd b0 a2 dc 3b 50 64 99 3d 4a ab 24 bd
       -0.042324636 0.006733261 0.07489836 -0.040202416
000120 7e 73 61 3d c6 37 4c bd d6 18 f4 3c 55 41 43 bd
       0.055041783 -0.049857877 0.029796999 -0.047669727
000130 7c aa 74 3d 43 d4 7a 3c a5 e5 4b bd d5 de aa 3d
       0.0597329 0.015309396 -0.049779553 0.08343283
000140 2c 6c 8c 3d 87 39 0d 3d 18 22 34 bc a2 9b 43 bb
       0.0685657 0.03447869 -0.010994457 -0.0029847403
000150 9a 80 a9 3d 9f 5e ef bc 75 af e7 bc 7e 53 70 bb
       0.08276482 -0.029219924 -0.028281907 -0.003667086
000160 8b 84 df bb fe 84 2d bd 05 5d 95 bd f0 c0 35 bc
       -0.0068212203 -0.04236316 -0.07293133 -0.011093363
000170 16 d9 7a bd f2 e8 7e bd 9e 57 99 3d 76 45 91 3c
       -0.061242186 -0.062233873 0.07487415 0.017733317
000180 52 3c 95 3d de 2d 8a bd c4 45 80 bc 38 05 97 bd
       0.07286896 -0.0674703 -0.015658267 -0.07374042
000190 3d 10 08 3d 05 3f 76 3c 68 55 02 3d 90 e0 27 3b
       0.03321861 0.015029673 0.03181973 0.0025616027
0001a0 5b d2 32 3d 99 6d 89 3d 41 a2 25 3d 94 bf 83 3d
       0.04365764 0.06710357 0.04043794 0.06433025
0001b0 27 22 a4 3d 94 cf 9f 3d eb 61 29 3c ba 25 83 3d
       0.080143265 0.07803264 0.010338287 0.0640368
0001c0 2c b7 b6 3c aa 2b af 3c 32 36 b7 3d 2b 53 18 bd
       0.02230414 0.021383125 0.08945884 -0.03718869
0001d0 29 85 e5 3c 1b c3 fb b9 0b 59 97 3c 39 78 92 3d
       0.028017597 -0.00048019816 0.018475076 0.07151837
0001e0 50 9b 5b bc c9 09 53 bd ea 55 7b 3b 5f e9 20 3d
       -0.013403729 -0.051523004 0.003835077 0.03928506
0001f0 76 9a 5a bd e8 24 2e bd c1 92 68 3d 87 a5 9a bd
       -0.05336996 -0.042515665 0.05678058 -0.07551103
