snotel_nn_model.pth (torch, 5200 bytes, 3 tensors)

fc1.weight f4 [128, 4]
0	0xbe15937c	-0.14607042
1	0x3de6dac6	0.112721965
2	0x3ec6b20b	0.3880771
3	0x3e5bed99	0.21477355
4	0xbde230f8	-0.11044496
5	0x3e2cf141	0.16888906
6	0x3e0a26d4	0.13491374
7	0x3eb8f0d6	0.36121243
8	0x3e9b34e3	0.30313787
9	0x3ed1fec5	0.41014686
10	0x3e98f6e2	0.29875857
11	0x3ef2398d	0.47309533
12	0xbede3eaf	-0.434072
13	0x3ed514e7	0.4161751
14	0xbe3771ac	-0.17914456
15	0xbe429871	-0.19003464
16	0xbd03224a	-0.032015122
17	0x3e99de18	0.30052257
18	0xbec6a1d8	-0.38795352
19	0xbd335275	-0.04377981
20	0xbebed40f	-0.37271163
21	0x3ea95992	0.3307615
22	0xbee4c8ff	-0.44684598
23	0x3e8ea046	0.27856654
24	0xbe099a15	-0.13437684
25	0x3d11c97a	0.035592534
26	0x3c5e1ca4	0.013556633
27	0x3d1d3765	0.038382906
28	0x3e56c9a0	0.20975351
29	0xbe336068	-0.17517245
30	0xbe990683	-0.2988778
31	0xbec08928	-0.37604642
32	0x3d0db134	0.034592822
33	0xbefd3d90	-0.4946103
34	0x3e6f0190	0.2334044
35	0x3e7b1806	0.24520883
36	0xbc5895a9	-0.0132192755
37	0xbef32b5d	-0.4749402
38	0xbe090835	-0.13382037
39	0xbef1db48	-0.4723761
40	0xbeabdeb2	-0.3356834
41	0xbe040e0f	-0.12895988
42	0xbea493cd	-0.32144013
43	0xbec689af	-0.3877692
44	0xbe105aaa	-0.14097086
45	0x3eefec02	0.46859747
46	0xbe026a31	-0.12735821
47	0x3e894393	0.26809368
48	0x3e6e29e2	0.23258165
49	0xbd806d99	-0.06270904
50	0xbeffa1c6	-0.4992811
51	0xbda6a303	-0.08136561
52	0x3d6daa68	0.05802384
53	0xbe527ab8	-0.20554626
54	0xbd207dcd	-0.039182473
55	0x3e36a709	0.17837156
56	0x3e93cde4	0.2886802
57	0xbee13156	-0.43982953
58	0x3d60cfb2	0.054885574
59	0x3eacfd4b	0.33786997
60	0x3d36953f	0.044575926
61	0x3edd3719	0.432061
62	0xbebc83d4	-0.36819327
63	0x3dc673ef	0.09690081
64	0x3e91b29f	0.2845659
65	0x3e9db814	0.30804503
66	0x3eb5dc2f	0.3551955
67	0x3e0af03b	0.13568203
68	0x3ece44c0	0.40286827
69	0x3e34c810	0.17654443
70	0x3e372cde	0.17888209
71	0x3ee0f9e5	0.43940654
72	0x3df4a160	0.11944842
73	0xbed5d369	-0.41762856
74	0x3eac5395	0.33657518
75	0x3e35f296	0.1776832
76	0x3ec5352f	0.38517138
77	0x3ed3f1a9	0.4139531
78	0x3dea5d5d	0.11443589
79	0x3e7bd2b7	0.245921
80	0x3e53aae5	0.2067066
81	0xbe22cfae	-0.15899536
82	0x3e76c45c	0.24098343
83	0xbe0e2d9e	-0.13884589
84	0x3e92a6a0	0.2864275
85	0x3e3a54b2	0.18196371
86	0xbd749931	-0.059716407
87	0xbe81b6c5	-0.25334755
88	0x3f001ff3	0.5004875
89	0x3c9afc1a	0.01891904
90	0x3eb899bb	0.36054787
91	0x3db33d7f	0.08751964
92	0xbdc47e50	-0.09594405
93	0xbe09fc98	-0.13475263
94	0xbe9ef1a2	-0.31043726
95	0x3e506999	0.20352782
96	0x3e553587	0.208212
97	0xbe41e8e3	-0.18936495
98	0xbe9b52c6	-0.3033659
99	0xbe34be91	-0.1765082
100	0xbe1ca5b6	-0.15297589
101	0xbd7123e3	-0.058872115
102	0x3de36aff	0.11104392
103	0xbeefb439	-0.46817186
104	0x3c5bd870	0.013418302
105	0x3e3cbe42	0.18431953
106	0x3de0f0a7	0.10983401
107	0xbef933c3	-0.48672304
108	0x3dfd880c	0.123794645
109	0x3ed1edef	0.4100184
110	0x3e6d2c8e	0.23161528
111	0x3e30e208	0.17273724
112	0xbe5b2fae	-0.21404907
113	0xbecb4660	-0.3970213
114	0x3ea8e325	0.32985798
115	0x3e738c4d	0.23783989
116	0x3e8c91de	0.27455038
117	0xbddd99a1	-0.10820318
118	0xbed2b237	-0.41151592
119	0x3e6711d8	0.225654
120	0xbec093b6	-0.37612695
121	0x3c75bbc9	0.014998385
122	0xbda45b73	-0.08025255
123	0x3ee9c092	0.45654732
124	0x3e3a7c8b	0.18211572
125	0xbea7ed2f	-0.32798144
126	0x3ee5acfd	0.44858542
127	0xbe9907ed	-0.2988886
128	0x3e16d304	0.14728934
129	0x3e464c2c	0.19364995
130	0xbe8e03cb	-0.2773727
131	0xbe036b55	-0.12833913
132	0xbe36037e	-0.1777477
133	0x3eeeedff	0.46665952
134	0xbce8c2df	-0.028413234
135	0xbe81a45a	-0.25320703
136	0x3c538c0f	0.012911811
137	0x3ebd6b43	0.36995897
138	0x3e2a7842	0.16647437
139	0x3eb37786	0.35052127
140	0x3c3738ef	0.011183008
141	0xbc51ab99	-0.01279726
142	0x3e88ed69	0.2674363
143	0x3ebc982b	0.36834845
144	0x3e830546	0.2558996
145	0xbe6caba4	-0.2311235
146	0xbe1078db	-0.14108603
147	0xbd3d55a3	-0.046224248
148	0xbef4493c	-0.47712123
149	0x3e832488	0.2561381
150	0xbe940b6b	-0.2891496
151	0x3efb2a80	0.49055862
152	0xbecdc0ab	-0.40186056
153	0x3e22c610	0.15895867
154	0x3e9d2e8b	0.30699572
155	0x3e5b48a1	0.21414424
156	0x3e5439b3	0.20725136
157	0xbee6a3c4	-0.45046818
158	0xbcc3d26a	-0.023904044
159	0x3ea1c1db	0.31593212
160	0x3dd23ca4	0.102654725
161	0x3ccc7f92	0.024963174
162	0xbec8e3cc	-0.39236295
163	0x3e91ed64	0.28501427
164	0x3ee508dc	0.44733322
165	0xbe9931c7	-0.2992079
166	0x3eaf27c2	0.3421002
167	0xbed20562	-0.41019732
168	0xbea69f8f	-0.3254361
169	0xbeb01d67	-0.34397432
170	0xbee066ef	-0.43828532
171	0x3eeba242	0.4602223
172	0xbeabef72	-0.3358112
173	0xbeb392b6	-0.3507287
174	0x3d7fccee	0.062451296
175	0xbe99c19a	-0.3003052
176	0x3ec472c2	0.38368803
177	0x3e28e890	0.16494966
178	0xbebbfd48	-0.36716676
179	0x3d2a955d	0.04164635
180	0x3ea307ff	0.31842038
181	0xbe90cbf1	-0.28280595
182	0xb9c298c8	-0.00037116394
183	0x3ea2c0af	0.3178763
184	0xbf0018d8	-0.5003791
185	0xbef64254	-0.4809748
186	0x3eb56834	0.35431063
187	0x3ec52974	0.3850819
188	0x3e9febcd	0.3123459
189	0xbee017fb	-0.43768296
190	0xbd46c7ff	-0.048530575
191	0x3e33d3e7	0.17561303
192	0xbc03eea6	-0.008052504
193	0x3e8bd45b	0.27310452
194	0x3de361d1	0.111026414
195	0x3dc185e8	0.09449369
196	0xbdb5ba65	-0.088734426
197	0x3ea5d002	0.3238526
198	0x3dd7fa62	0.105458036
199	0xbe6b64b5	-0.22987635
200	0xbe6688eb	-0.22513168
201	0xbd93d244	-0.07217839
202	0x3e5d44d6	0.2160829
203	0x3ee5071e	0.44731992
204	0x3ecd85d2	0.4014116
205	0xbd3105a1	-0.04321826
206	0x3ecb92dc	0.39760482
207	0x3ec901e8	0.39259267
208	0x3b17bf07	0.0023154633
209	0xbea9a1fe	-0.33131403
210	0xbdea1444	-0.114296466
211	0x3ef33af9	0.4750593
212	0x3ea0ca7b	0.3140448
213	0xbed7d5d5	-0.42155328
214	0x3e11083c	0.14163297
215	0x3e264e6f	0.16240858
216	0xbe1bdc67	-0.15220796
217	0xbed61385	-0.41811767
218	0x3ea0a453	0.3137537
219	0xbe57bb7c	-0.21067613
220	0xbeea7bba	-0.4579752
221	0x3ef9a395	0.48757616
222	0x3eee5ebd	0.46556655
223	0x3ef6b3ec	0.48184144
224	0xbe71a614	-0.2359851
225	0xbdc3e114	-0.095644146
226	0xbed77371	-0.42080262
227	0x3d737ec3	0.05944706
228	0xbded8856	-0.1159827
229	0xbe2b8db1	-0.1675327
230	0xbe7e48c2	-0.24832442
231	0x3ea8a631	0.32939294
232	0xbde3f013	-0.11129775
233	0xbeda5e89	-0.4265025
234	0xbeeeff62	-0.46679217
235	0x3ea114f9	0.31461313
236	0x3e9367dc	0.28790176
237	0xbec2f2f7	-0.38075992
238	0xbd49b4d9	-0.049244735
239	0x3ddcec6d	0.10787282
240	0xbe2baa76	-0.16764244
241	0x3e419960	0.18906164
242	0x3e61486e	0.22000286
243	0xbe71efeb	-0.23626678
244	0x3ec28342	0.37990767
245	0xbefdd5e5	-0.4957725
246	0x3ed00dd6	0.40635556
247	0x3dcd02c6	0.100102946
248	0x3ec89a11	0.39180043
249	0x3db69f5c	0.08917114
250	0xbe589fac	-0.2115466
251	0xbef3f86c	-0.47650468
252	0xbe683b2a	-0.2267882
253	0xbe64daa7	-0.22349034
254	0x3e7c1864	0.2461868
255	0x3e79b1b6	0.24384198

fc1.bias f4 [128]
0	0xbe958b0a	-0.2920764
1	0xbe6e0ed1	-0.2324784
2	0x3ddfcd95	0.109278835
3	0x3ea0fc77	0.31442615
4	0x3e00c794	0.12576133
5	0x3e817ea5	0.25291935
6	0xbe7bbb68	-0.24583209
7	0x3c45852b	0.0120556755
8	0x3dce1aa1	0.10063673
9	0x3e0d9f44	0.13830286
10	0x3ed345a1	0.4126406
11	0xbea1cd34	-0.3160187
12	0xbed86ea9	-0.42271927
13	0x3ea8e552	0.32987458
14	0xbe5432c2	-0.20722488
15	0xbe9ae8a7	-0.30255625
16	0xbea0a689	-0.31377056
17	0x3eaa9964	0.33320153
18	0xbecf8df7	-0.40537998
19	0x3e9a792c	0.30170572
20	0x3e89b4ed	0.26895848
21	0xbd83ca5e	-0.06435083
22	0x3dadd967	0.08488732
23	0x3ebee907	0.3728716
24	0x3eb72c10	0.35775805
25	0xbe4f3135	-0.20233615
26	0xbefcc38c	-0.4936794
27	0xbed2e7a5	-0.41192356
28	0xbd27057c	-0.040776715
29	0x3e8f8863	0.28033742
30	0xbed8f58a	-0.4237483
31	0x3ebec3bb	0.37258705
32	0x3d9434b8	0.07236618
33	0xbda82ad8	-0.08211297
34	0xbe013685	-0.12618454
35	0xbd96cbd9	-0.073630996
36	0x3cc6d75c	0.024272613
37	0x3e8d45de	0.27592367
38	0xbe30478b	-0.17214791
39	0xbec82d71	-0.3909717
40	0x3ec2ded5	0.38060632
41	0x3db0c26e	0.086308345
42	0x3e4fb6a9	0.20284523
43	0xbeea20be	-0.45728105
44	0x3ea76170	0.32691526
45	0xbed652c3	-0.41860017
46	0x3ef466c0	0.47734642
47	0x3ea140e4	0.3149482
48	0x3e81665b	0.25273404
49	0xbc8698d9	-0.016430305
50	0x3df0c3c0	0.11756086
51	0x3ed5561b	0.41667256
52	0xbe975c13	-0.29562435
53	0xbdc7e593	-0.09760585
54	0x3ea1ca52	0.3159967
55	0xbe6ee901	-0.23331071
56	0x3ecc2532	0.39872128
57	0xbef9aca3	-0.48764524
58	0xbe3a79a9	-0.18210472
59	0x3e036e68	0.12835085
60	0xbddcbc51	-0.10778106
61	0x3de498be	0.11161946
62	0xbe282560	-0.16420507
63	0x3e5d685a	0.21621838
64	0x3e93264b	0.28740153
65	0x3edd463f	0.43217656
66	0xbe7798d1	-0.24179389
67	0xbeb056a4	-0.34441102
68	0xbed37912	-0.41303307
69	0x3ec9d054	0.39416754
70	0xbebe2f64	-0.3714553
71	0xbe89c11f	-0.26905152
72	0x3ec8c545	0.39213005
73	0xbcdde4e6	-0.027086686
74	0x3ea540fd	0.32276145
75	0xbec95371	-0.39321473
76	0x3efcc69d	0.4937028
77	0x3ea32f5b	0.31872067
78	0x3a8e1392	0.0010839573
79	0xbe971091	-0.29504827
80	0xbed0ac6c	-0.40756547
81	0x3e924670	0.28569365
82	0x3ec63650	0.38713312
83	0xbe869482	-0.26285177
84	0xbe18cb0f	-0.1492121
85	0xbe78809a	-0.24267808
86	0x3eba1480	0.36343765
87	0xbdb80ed7	-0.089872055
88	0x3eec683a	0.4617327
89	0x3ea74e57	0.32676956
90	0x3e6ac6ae	0.22927353
91	0x3d6ceaaa	0.05784098
92	0xbe8f9e99	-0.28050688
93	0xbe56322b	-0.20917575
94	0xbac17ef4	-0.0014762566
95	0xbed1f466	-0.41006774
96	0xbf019b90	-0.50627995
97	0xbead5a57	-0.33857986
98	0x3eb9adbf	0.3626537
99	0x3ecadfcb	0.39623865
100	0x3dd6f1c5	0.10495333
101	0xbdac20f0	-0.0840472
102	0xbe126406	-0.14295968
103	0xbd808726	-0.062757775
104	0xbe54c05b	-0.20776503
105	0xbed8c905	-0.42340866
106	0x3e5538e2	0.2082248
107	0xbe15a278	-0.14612758
108	0x3eafc65c	0.34331024
109	0x3ede010a	0.43360168
110	0x3e808f5c	0.25109375
111	0xbde451ff	-0.11148452
112	0x3e6a1517	0.22859608
113	0xbdc81a5a	-0.09770651
114	0x3ee89e85	0.4543344
115	0xbef2acdd	-0.4739751
116	0xbd59c9a6	-0.053170823
117	0x3efccea1	0.49376395
118	0x3eaafd00	0.3339615
119	0xbeea70ed	-0.4578928
120	0xbea8464d	-0.32866135
121	0xbe3a5bfb	-0.1819915
122	0xbea00800	-0.31256104
123	0x3e618b38	0.22025764
124	0xbe2fab43	-0.17155175
125	0x3e9ac295	0.3022658
126	0x3ea9a3c1	0.33132747
127	0x3e870ff5	0.26379362

fc2.weight f4 [1, 128]
0	0xbd7f5095	-0.06233271
1	0x3d76b6dc	0.060232982
2	0xbd223314	-0.039599493
3	0x3d81e207	0.063419394
4	0x3c992e85	0.01869894
5	0x3d6b6443	0.057468664
6	0x3d999f99	0.07501144
7	0x3d1b3282	0.037889965
8	0x3cadd0a4	0.021217652
9	0xbd904906	-0.07045178
10	0xbc6e4bd5	-0.014544447
11	0xbd46ff2a	-0.048583187
12	0xbd896683	-0.06709006
13	0x3c447764	0.011991356
14	0x3b6f5336	0.0036518103
15	0xbd1e0897	-0.03858241
16	0xbc368df0	-0.011142239
17	0xbd13185a	-0.035911895
18	0xbd1fb184	-0.03898765
19	0xbd780e68	-0.060560614
20	0x3dcfc523	0.10145023
21	0x3da04c58	0.078270614
22	0x3d81892e	0.06324993
23	0xba80a617	-0.0009815124
24	0x3c9f86d5	0.019473473
25	0x3d9db1f2	0.07699956
26	0xbcc1a841	-0.0236398
27	0x3d57d41a	0.05269251
28	0x3d8ba3fb	0.06818386
29	0x3c35202f	0.011055036
30	0x3d265bbf	0.04061484
31	0xbd44ee56	-0.048078857
32	0x3cb230f7	0.021751864
33	0xbd3c32ca	-0.045946874
34	0x3da6fb3d	0.08153389
35	0xbbbf8dd6	-0.0058457656
36	0xbd8d5c89	-0.06902415
37	0x3d83e0fb	0.06439396
38	0x3b08d8b1	0.0020881111
39	0xbda2d917	-0.07951563
40	0x3cc1ca01	0.023655893
41	0xbc441091	-0.01196684
42	0x3cb313e1	0.021860065
43	0xbcec7428	-0.028863981
44	0xbd4dadc1	-0.050214533
45	0xbca07cd5	-0.019590775
46	0x3c419efb	0.011817689
47	0xbd5bc506	-0.053654693
48	0xbd0527be	-0.032508604
49	0xbc742653	-0.014901715
50	0x3cf23bc0	0.029569507
51	0x3d9d409e	0.076783404
52	0x3da84f69	0.08218271
53	0xbc7a052c	-0.015260022
54	0xbd82f61f	-0.063946
55	0x3db75411	0.08951581
56	0xbd0f986d	-0.035057474
57	0xbd4b1dd2	-0.049588986
58	0xbd4d4f7b	-0.050124627
59	0xbbc82e5b	-0.0061090416
60	0xbd5f89ec	-0.054574892
61	0x3c997bd2	0.0187358
62	0x3cd8c5ce	0.026461508
63	0xbcc447c7	-0.023960007
64	0x3c9375e1	0.018000545
65	0x3d3ac157	0.04559454
66	0x3dbd2e0b	0.092372976
67	0xbca52658	-0.020159885
68	0xbd0b4bba	-0.034007765
69	0x3d0339e5	0.032037634
70	0xbcff4f81	-0.03116584
71	0x3d4caebd	0.04997133
72	0xbdc6f8f9	-0.097154565
73	0x3c0890a7	0.008335269
74	0x3c831c95	0.01600484
75	0xbc1b7710	-0.009488836
76	0x3d47e809	0.04880527
77	0x3d61c525	0.055119652
78	0xbd9087d1	-0.07057155
79	0xbd6fbe80	-0.058531284
80	0xbc863db8	-0.016386852
81	0xbd8be313	-0.0683042
82	0x3da6c6e7	0.08143406
83	0xbd4d8e82	-0.050184734
84	0xbd15018b	-0.036378425
85	0xbd94c8db	-0.07264873
86	0x3da2d7d6	0.07951324
87	0xbcace87c	-0.021106951
88	0xbbc97653	-0.0061481385
89	0x3d93bdb5	0.07213918
90	0x3cda653c	0.0266596
91	0xbd0c86d7	-0.03430828
92	0xbd8326d8	-0.06403893
93	0x3d6153b3	0.055011462
94	0x3d7fe870	0.06247753
95	0x3dc9cbfa	0.098533586
96	0x3cf1e2d6	0.02952711
97	0x3cca26a7	0.024676634
98	0x3dba56c8	0.090985835
99	0xbbe548c0	-0.006997198
100	0x3d673683	0.05644847
101	0x3d2d3698	0.042288393
102	0xbce978d7	-0.028500004
103	0xbc16549e	-0.009175448
104	0xbd25f77c	-0.040519223
105	0x3d90476a	0.07044871
106	0xbd533e0c	-0.051572844
107	0xbd033bed	-0.03203957
108	0x3c1ce4ba	0.009576017
109	0xbbe14560	-0.006874725
110	0x3d19ef63	0.037581813
111	0xbdc53354	-0.09628931
112	0x3ba47372	0.005018645
113	0xbc9aeae4	-0.018910833
114	0x3d87d39c	0.06632158
115	0xbcc1d4ad	-0.023660982
116	0x3cd21775	0.02564595
117	0x3d6e276d	0.058143068
118	0xbd80d37e	-0.06290339
119	0xbd8a87c8	-0.067641795
120	0xbd17dbfc	-0.037075028
121	0x3dc52277	0.09625714
122	0x3cc797c1	0.024364354
123	0x3d55a78c	0.05216174
124	0xbcf24692	-0.029574666
125	0x3cf9aa93	0.030476844
126	0xbd3b928e	-0.045794062
127	0x3da32701	0.07966424
